titanic/model.pth (torch_old, 7812 bytes, 7 tensors)

fc1.weight f4 [64, 6]
-0.36574575 0.26727566 -3.7048187e-05 -0.0784557 -0.08127325 -0.14613226 -0.16564748 0.3228936
-0.053602777 0.31825507 0.42988127 0.009046445 -0.15587328 0.18383783 -0.2751381 -0.33936644
0.333789 0.17512497 0.07445422 -0.10602937 0.21058144 -0.33450264 -0.53849536 0.071810976
-0.18131308 -0.02597312 0.014557626 0.092624344 -0.105863154 0.12342007 -0.32231683 -0.24289578
0.1971265 0.096194394 0.2348209 -0.09157267 0.06901631 -0.2500106 -0.2705567 -0.12216666
-0.76466775 0.21822532 -0.019212648 0.17081143 0.1938382 0.25097817 -0.48272985 -0.15089355
0.102130756 -0.5584883 -0.10349154 -0.050845142 -0.3648801 0.22780873 -0.3577116 0.053552866
-0.22678554 -0.052144974 -0.027206004 -0.022916764 0.090779535 -0.2805104 -0.108979225 0.11548347
0.5414882 -0.31742123 0.05485015 0.16466764 0.1638868 -0.0038355174 0.105035804 -0.026647717
0.19050707 -0.42338392 -0.41190726 -0.46916774 -0.4968471 -0.25215074 -0.077264965 -0.27286252
-0.151411 -0.20895703 -0.028873205 -0.2928584 -0.03118825 -0.27812803 -0.08577278 -0.07520676
0.042649746 -0.0375956 -0.27964982 0.2732838 -0.2342777 -0.30087537 0.07889671 0.057355635
-0.05091303 0.29144448 0.3298254 0.16564883 0.10824284 0.15743591 -0.15358266 -0.22904103
-0.11149973 -0.14299315 0.13050056 0.19475538 -0.27565518 0.2834861 0.363336 -0.2722058
-0.1523447 0.31613123 0.016651936 0.052004043 0.22328444 -0.07695975 -0.07628999 -0.235503
0.11705713 -0.14870183 0.37538755 -0.40919647 0.14548996 0.1842306 -0.21645173 -0.04673974
0.33962208 0.054734983 0.00011969575 -0.021194741 -0.27556205 0.05631292 -0.23937424 -0.19159916
-0.2941523 -0.013967246 -0.007617429 -0.19481698 0.3631931 0.12263701 -0.25089008 0.36769742
0.015139405 0.08334089 0.10020213 -0.0083260825 0.42977247 -0.12121361 0.04447391 -0.2250813
0.101449564 -0.3994945 0.40879807 -0.35042262 -0.2869893 -0.11121221 0.38361004 -0.02687055
0.31536934 0.14802396 -0.32171047 -0.0784003 0.10211418 0.38610673 -0.09227638 -0.35297132
-0.03573828 -0.03201842 0.37147218 0.022029158 -0.06857441 0.29533595 -0.16827683 0.039817154
0.12883121 -0.40523466 0.18266559 -0.092310965 0.03965696 0.39138815 -0.38657606 -0.12148958
-0.28404608 -0.32848728 -0.0342743 0.34168524 0.2896037 -0.29319477 0.35111094 -0.1788218
-0.04998362 -0.37706727 -0.09741843 -0.34139028 -0.2611318 -0.3598339 0.11068438 -0.093937695
0.22404908 -0.3765122 -0.8197428 0.18001163 -0.16674426 -0.37674806 0.27100253 -0.0620484
0.12943302 0.32248467 -0.09821822 -0.39235342 0.3370293 -0.068694614 0.14065786 0.014621407
-0.293784 -0.056600638 0.2779329 0.22049627 0.33508834 -0.0896294 -0.24072455 -0.26504844
-0.08068672 -0.3703709 -0.3639814 0.3147683 0.11614322 -0.30369607 0.08961994 -0.10586671
0.58370876 0.23995095 -0.05420031 -0.10930945 -0.11795914 0.28367046 0.16729571 -0.07538746
0.03295829 0.16378601 0.14987025 -0.19609421 -0.45011833 0.4030473 0.08513413 -0.26461634
-0.28349528 0.1881455 0.071108684 0.39886317 0.03232804 -0.33746564 0.31878847 -0.017427655
00000000: 0743 bbbe 5bd8 883e 3064 1bb8 62ad a0bd
00000010: 9772 a6bd b2a3 15be 7e9f 29be 4f52 a53e
00000020: 968e 5bbd 54f2 a23e 6619 dc3e 8a37 143c
00000030: 3f9d 1fbe fc3f 3c3e e7de 8cbe 70c1 adbe
00000040: 64e6 aa3e f653 333e 747b 983d ed25 d9bd
00000050: a9a2 573e ee43 abbe d5da 09bf a211 933d
00000060: 23aa 39be 95c5 d4bc 1c83 6e3c d5b1 bd3d
00000070: c8ce d8bd a9c3 fc3d b606 a5be acb9 78be
00000080: 87db 493e 9101 c53d e474 703e 748a bbbd
00000090: 6c58 8d3d 6401 80be 6886 8abe 8432 fabd
000000a0: 44c1 43bf 7576 5f3e d863 9dbc 31e9 2e3e
000000b0: 857d 463e 3680 803e 5e28 f7be d783 1abe
000000c0: ee29 d13d 17f9 0ebf 5ff3 d3bd ff42 50bd
000000d0: 91d1 babe b146 693e fa25 b7be 405a 5b3d
000000e0: 783a 68be f895 55bd 20df debc f0bb bbbc
000000f0: 9fea b93d 0f9f 8fbe 8030 dfbd 9982 ec3d
00000100: f89e 0a3f 0985 a2be 8daa 603d a29e 283e
00000110: f1d1 273e 4e5d 7bbb 031d d73d 504c dabc
00000120: 4914 433e c7c5 d8be 82e5 d2be c136 f0be
00000130: be62 febe e719 81be 183d 9ebd a3b4 8bbe
00000140: 7c0b 1bbe d5f8 55be 8087 ecbc 89f1 95be
00000150: 807e ffbc cc66 8ebe a4a9 afbd 0006 9abd
00000160: 80b1 2e3d d8fd 19bd 432e 8fbe dbeb 8b3e
00000170: 7ee6 6fbe 560c 9abe 9994 a13d beed 6a3d
00000180: 2e8a 50bd 3638 953e e0de a83e d99f 293e
00000190: 6cae dd3d e136 213e c644 1dbe bb89 6abe
000001a0: f859 e4bd cc6c 12be f0a1 053e f46d 473e
000001b0: ad22 8dbe 1725 913e 2d07 ba3e 8f5e 8bbe
000001c0: 4000 1cbe f4db a13e a469 883c 3102 553d
000001d0: ada4 643e 139d 9dbd ed3d 9cbd b327 71be
000001e0: a6bb ef3d 4b45 18be cc32 c03e 3382 d1be
000001f0: 52fb 143e f2a6 3c3e 86a5 5dbe 2b72 3fbd
00000200: f2e2 ad3e ca31 603d 2b05 fb38 98a0 adbc
00000210: 7816 8dbe 60a8 663d 851e 75be 9232 44be
00000220: 219b 96be e0d6 64bc a09b f9bb 1a7e 47be
00000230: 72f4 b93e 1d29 fb3d aa74 80be d642 bc3e
00000240: 440b 783c a1ae aa3d c636 cd3d 1f6a 08bc
00000250: 230b dc3e d73e f8bd 462a 363d b67b 66be
00000260: cac4 cf3d 8b8a ccbe fb4d d13e 986a b3be
00000270: 43f0 92be 3ac3 e3bd 8968 c43e a11f dcbc
00000280: 1778 a13e 9893 173e 3cb7 a4be 5690 a0bd
00000290: 3d21 d13d c8af c53e 66fb bcbd a8b8 b4be
000002a0: 4d62 12bd bf25 03bd 9a31 be3e 7e76 b43c
000002b0: be70 8cbd 4636 973e c350 2cbe 5017 233d
000002c0: 54ec 033e eb7a cfbe b00c 3b3e 880d bdbd
000002d0: 566f 223d 0764 c83e 4ced c5be 87cf f8bd
000002e0: 7d6e 91be 7c2f a8be 3563 0cbd 5ef1 ae3e
000002f0: f046 943e a01d 96be d0c4 b33e 101d 37be
00000300: a0bb 4cbd f60e c1be 5083 c7bd b5ca aebe
00000310: 11b3 85be 263c b8be 7eae e23d 6862 c0bd
00000320: 1f6d 653e 35c6 c0be aada 51bf f854 383e
00000330: 02bf 2abe 1fe5 c0be d8c0 8a3e 7726 7ebd
00000340: 178a 043e b61c a53e a226 c9bd 8ce2 c8be
00000350: 1b8f ac3e c3af 8cbd 9d08 103e a08e 6f3c
00000360: db6a 96be 12d6 67bd 394d 8e3e c6c9 613e
00000370: b390 ab3e 9e8f b7bd 7f80 76be 6eb4 87be
00000380: 143f a5bd 41a1 bdbe c55b babe 5029 a13e
00000390: 7fdc ed3d 0d7e 9bbe a98a b73d a5d0 d8bd
000003a0: f06d 153f b4b5 753e 2501 5ebd a2dd dfbd
000003b0: 9094 f1bd 413d 913e 914f 2b3e be64 9abd
000003c0: 46ff 063d 85b7 273e 9677 193e eccc 48be
000003d0: e975 e6be 375c ce3e ce5a ae3d cb7b 87be
000003e0: 4b26 91be 37a9 403e 6ea1 913d cb37 cc3e
000003f0: 686a 043d 4cc8 acbe 3e38 a33e 71c4 8ebc

fc1.bias f4 [64]
-0.06890272 -0.105462216 -0.02998708 0.32903147 0.15922417 0.0913691 0.611623 0.52356696
0.39935485 -0.06471917 -0.21928672 0.089678854 -0.07966483 -0.03748527 -0.25574017 0.28504208
0.2915243 0.001642108 0.24406616 0.40200007 0.14616078 -0.049979236 -0.2794329 -0.10713848
-0.18989149 0.093425035 0.1867902 -0.009636397 0.33020806 -0.18641974 0.10410482 -0.30065873
0.024328291 0.01545064 -0.21461911 -0.061763406 -0.19112682 0.0056931973 -0.045991242 -0.18433695
-0.031439967 -0.26044366 -0.44293332 -0.43350592 0.26191574 -0.25014496 0.03515941 -0.010925502
0.009817294 -0.38234338 -0.43143433 -0.114397466 -0.038662408 -0.49087155 -0.074571714 -0.19505973
0.27400064 0.11768114 0.039922938 -0.096183315 0.28913015 0.17511642 -0.39156938 -0.62011516
00000000: df1c 8dbd 93fc d7bd 77a7 f5bc d076 a83e
00000010: a90b 233e b91f bb3d 5393 1c3f 7c08 063f
00000020: 3d78 cc3e 7c8b 84bd b38c 60be 8ca9 b73d
00000030: 5027 a3bd 288a 19bd 60f0 82be 09f1 913e
00000040: ac42 953e 003c d73a 7bec 793e f4d2 cd3e
00000050: 2cab 153e 07b7 4cbd d411 8fbe 6b6b dbbd
00000060: ea72 42be a055 bf3d ee45 3f3e fae1 1dbc
00000070: 0811 a93e d1e4 3ebe e834 d53d f1ef 99be
00000080: 204c c73c ae24 7d3c 1dc5 5bbe a0fb 7cbd
00000090: c0b6 43be 008e ba3b 5061 3cbd d3c2 3cbe
000000a0: 32c7 00bd df58 85be 28c8 e2be 7df4 ddbe
000000b0: d219 863e 0013 80be 5003 103d e000 33bc
000000c0: b7d8 203c 83c2 c3be f6e4 dcbe 3849 eabd
000000d0: 795c 1ebd 8453 fbbe 0eb9 98bd bdbd 47be
000000e0: d049 8c3e cf02 f13d 3c86 233d c2fb c4bd
000000f0: de08 943e b851 333e c87b c8be debf 1ebf

fc2.weight f4 [16, 64]
0.044862807 0.013485685 -0.058399722 -0.043943897 0.11175068 0.048213184 0.101329535 -0.108644575
0.10192132 0.00829798 0.012117162 0.034445778 -0.09444642 0.06830639 -0.10179426 0.062507525
0.11914295 -0.118026465 -0.121647045 0.056396306 0.0407013 0.04857041 -0.070232645 -0.03927152
0.056281894 -0.07941383 0.015399158 -0.015469894 0.0032329112 -0.05558306 -0.11488548 0.07777256
-0.055249676 -0.08102018 0.03939697 0.08938536 -0.08000511 -0.057757407 -0.08858511 -0.08676472
-0.015072674 -0.028167754 0.055710122 -0.1241211 0.091528416 -0.11185239 -0.0031405091 -0.07043359
-0.066971585 0.12041561 -0.07804993 -0.013103738 -0.10129477 -0.006264195 -0.1039339 -0.0716815
-0.042064294 -0.035461113 -0.05555521 0.115125924 0.06789371 -0.010158017 -0.043323457 0.0064635873
0.020816585 0.116056174 0.11917733 -0.0781941 -0.0051001096 0.007829449 -0.1343401 -0.03254372
0.14652155 -0.018787265 0.094363384 -0.048767082 -0.08122527 0.057397008 -0.10209404 0.121382855
0.053226568 0.115816206 -0.043581873 0.09452699 -0.06824264 0.11427709 0.10600828 -0.11751333
0.15603481 0.052223843 -0.015069804 0.08203971 -0.10125314 -0.082025304 -0.02093237 0.06918845
-0.05140528 -0.08627149 -0.11014456 0.016670743 -0.03709634 0.045733094 -0.027556997 -0.012405986
-0.10586437 0.030347591 0.046650622 -0.049707513 -0.22087003 -0.03660041 0.01598851 0.08943473
0.091881126 0.019270878 -0.041858457 0.09070648 -0.02325214 0.1496024 0.13449556 0.07919309
0.1226872 0.116436616 0.07496745 0.16480052 -0.019520832 -0.026017427 -0.021242587 0.03404762
0.066538066 -0.041513745 0.017889827 0.21092942 0.054814756 -0.11246981 0.07438334 0.037341595
0.12103092 0.096816644 -0.09312489 0.0755127 0.173996 0.113170594 -0.027578726 -0.029256344
-0.15218058 0.07785922 0.006838694 -0.06611573 0.038061213 0.0048872232 -0.0620998 -0.0026257378
0.019042358 0.058390107 -0.11327964 0.0832323 -0.060942538 -0.104826614 0.115019746 0.0010927232
0.121530026 0.08836532 0.03661467 -0.033066332 0.004057154 0.09420419 0.08132087 -0.069859184
0.12908742 0.084479205 -0.03382503 -0.00437198 0.034534156 0.0576241 -0.06639975 -0.055308297
-0.035752617 -0.14306006 0.032624867 0.07702391 0.037702598 -0.10041629 -0.05186206 -0.1625731
-0.040244706 -0.08962445 -0.048104756 -0.054358877 -0.084203444 -0.089720786 0.055116687 0.089720346
-0.050973453 -0.045733877 -0.083867945 -0.08871457 -0.025839735 -0.0033088517 -0.023217814 -0.11821703
-0.06269164 0.07833098 -0.12250663 0.1082319 0.014742494 0.0815604 0.11030449 -0.0009605442
-0.062350366 0.11473954 0.03180878 -0.038322624 0.10784409 0.12230803 -0.09726775 0.04087421
0.041340288 0.103652835 0.030212862 0.12104274 0.0835878 0.012488157 -0.0049766246 -0.022546686
-0.033358306 -0.04108964 -0.014220918 0.009787689 -0.016455758 -0.017926708 -0.047350615 0.09253978
0.033344757 -0.021257438 -0.100508414 0.0029607168 -0.069600776 -0.08684556 0.11285253 -0.05162868
0.04366366 -0.0248622 0.10425413 0.08977032 -0.007165553 -0.029915957 -0.11768879 0.042104274
0.002954954 0.102767125 0.028225733 -0.10749292 0.07999785 0.10852556 0.031757917 0.04389469
00000000: 10c2 373d 10f3 5c3c 8c34 6fbd 84fe 33bd
00000010: 8add e43d 307b 453d dc85 cf3d 0c81 debd
00000020: 20bc d03d 40f4 073c 1087 463c 0417 0d3d
00000030: 206d c1bd 38e4 8b3d 8279 d0bd f203 803d
00000040: 3801 f43d dcb7 f1bd 1622 f9bd d0ff 663d
00000050: 68b6 263d c4f1 463d 22d6 8fbd 2cdb 20bd
00000060: d887 663d b8a3 a2bd c04c 7c3c 7075 7dbc
00000070: 40df 533b 10ab 63bd 1449 ebbd 3847 9f3d
00000080: 7c4d 62bd e8ed a5bd b85e 213d ac0f b73d
00000090: b8d9 a3bd 0893 6cbd 1c6c b5bd b4b1 b1bd
000000a0: 60f3 76bc 10c0 e6bc 4c30 643d 3433 febd
000000b0: 4073 bb3d de12 e5bd 00d1 4dbb 7c3f 90bd
000000c0: 6628 89bd 769c f63d a4d8 9fbd 10b1 56bc
000000d0: a273 cfbd e043 cdbb 4cdb d4bd c0cd 92bd
000000e0: 9c4b 2cbd ac3f 11bd dc8d 63bd 24c7 eb3d
000000f0: dc0b 8b3d d06d 26bc f073 31bd 80cc d33b
00000100: 8b87 aa3c dcae ed3d 3e13 f43d 3a24 a0bd
00000110: d21e a7bb 1747 003c 7490 09be 904c 05bd
00000120: bf09 163e c0e7 99bc 9741 c13d febf 47bd
00000130: 6f59 a6bd 2019 6b3d ae16 d1bd 9397 f83d
00000140: 1a04 5a3d 0c31 ed3d e882 32bd 5e97 c13d
00000150: ccc2 8bbd 1b0a ea3d de1a d93d d4aa f0bd
00000160: 97c7 1f3e abe8 553d 57e7 76bc 6f04 a83d
00000170: ce5d cfbd e2fc a7bd 5d7a abbc adb2 8d3d
00000180: 588e 52bd 1baf b0bd 7993 e1bd 1591 883c
00000190: 55f2 17bd a052 3b3d 36bf e1bc 7a42 4bbc
000001a0: 6bcf d8bd 839b f83c b914 3f3d 1b9a 4bbd
000001b0: c12b 62be 50ea 15bd 56fa 823c 8e29 b73d
000001c0: 2c2c bc3d f6dd 9d3c c673 2bbd 52c4 b93d
000001d0: 467b bebc 5f31 193e 34b9 093e fd2f a23d
000001e0: 6d43 fb3d 5276 ee3d 8988 993d 78c1 283e
000001f0: 27ea 9fbc 8022 d5bc ef04 aebc 8475 0b3d
00000200: 1c45 883d 510a 2abd b08d 923c e2fd 573e
00000210: 7085 603d 9256 e6bd 4b56 983d 80f3 183d
00000220: 0fdf f73d ce47 c63d 43b8 bebd 67a6 9a3d
00000230: 022c 323e fcc5 e73d c8ec e1bc 00ab efbc
00000240: 3ad5 1bbe a874 9f3d 2017 e03b af67 87bd
00000250: 13e6 1b3d 0025 a03b 5c5c 7ebd 9214 2cbb
00000260: b8fe 9b3c 772a 6f3d 28ff e7bd b275 aa3d
00000270: e29e 79bd 56af d6bd 798f eb3d b539 8f3a
00000280: bce4 f83d e0f8 b43d 44f9 153d 9070 07bd
00000290: e0f1 843b 20ee c03d 8e8b a63d 5512 8fbd
000002a0: 7e2f 043e 6f03 ad3d 1d8c 0abd d442 8fbb
000002b0: b073 0d3d 4007 6c3d 98fc 87bd f48a 62bd
000002c0: 5671 12bd 567e 12be a7a1 053d b6be 9d3d
000002d0: 0a6e 1a3d 0ea7 cdbd 506d 54bd 9079 26be
000002e0: a2d7 24bd 068d b7bd 7e09 45bd 6aa7 5ebd
000002f0: db72 acbd 88bf b7bd 09c2 613d 4dbf b73d
00000300: 8ac9 50bd 7253 3bbd f5c2 abbd fcaf b5bd
00000310: daad d3bc 52d9 58bb 4933 bebc c51b f2bd
00000320: 7964 80bd fe6b a03d c2e4 fabd b0a8 dd3d
00000330: 808a 713c 2409 a73d 52e7 e13d 08cd 7bba
00000340: 1963 7fbd 90fc ea3d ec49 023d 2ff8 1cbd
00000350: 5ddd dc3d a27c fa3d 5034 c7bd b76b 273d
00000360: 6f54 293d f047 d43d f780 f73c 42e5 f73d
00000370: 1530 ab3d 209b 4c3c f412 a3bb d4b3 b8bc
00000380: b8a2 08bd 9c4d 28bd dafe 68bc 8b5c 203c
00000390: 3ace 86bc 08db 92bc b8f2 41bd 7f85 bd3d
000003a0: 8394 083d 1424 aebc 5bd7 cdbd 9608 423b
000003b0: da8a 8ebd 16dc b1bd 3a1f e73d 9878 53bd
000003c0: aad8 323d d0ab cbbc 3083 d53d 80d9 b73d
000003d0: 04cd eabb 4f12 f5bc d206 f1bd 8875 2c3d
000003e0: e7a7 413b 9277 d23d a739 e73c 3f25 dcbd
000003f0: ead5 a33d a642 de3d 9714 023d ebca 333d

fc2.bias f4 [16]
-0.07323398 -0.009807597 0.095765136 -0.1146782 -0.05196037 0.09817201 0.09619422 0.09428339
0.3150954 -0.15671554 0.03346754 -0.06592972 0.008701742 0.3522056 -0.3175037 0.074449636
00000000: b2fb 95bd 0bb0 20bc 8320 c43d 67dc eabd
00000010: 66d4 54bd 680e c93d 7a01 c53d a617 c13d
00000020: 2f54 a13e 0a7a 20be 4215 093d 2906 87bd
00000030: c091 0e3c 4b54 b43e d88f a2be 0d79 983d

fc3.weight f4 [8, 16]
0.07811326 0.17642662 -0.15330094 0.16259488 0.17781651 0.004337961 0.083066255 -0.03601417
-0.007679043 -0.24244615 -0.040180016 -0.06567849 -0.011594623 0.09005726 0.2480995 0.095764086
0.105701864 -0.03676537 0.21821594 0.10085723 -0.15976948 -0.0939385 -0.13766989 0.054422453
-0.21216606 -0.18440723 -0.013053995 0.2324669 0.2280148 0.05693088 0.06789843 -0.12708935
0.019853562 0.13603833 -0.13651235 -0.17139065 -0.17134817 0.13656901 -0.011026174 0.20305672
-0.19115436 0.18433212 -0.065787844 -0.2205503 0.24024093 -0.054634817 -0.12567188 0.043071616
0.21170661 0.027796209 0.1481975 0.12435435 0.2073085 0.07706865 -0.039051175 0.07443469
0.17541526 0.048785586 -0.12467308 0.060466778 0.12673885 -0.26321858 -0.11581625 -0.16487144
0.18693891 -0.21297568 -0.045309663 0.17429326 -0.18054812 -0.07072969 0.18374047 -0.27365303
-0.17419615 0.56317556 -0.2583191 0.07731807 -0.247762 -0.45354396 0.44032964 -0.08664808
-0.031816453 0.13516703 0.049781986 0.17361376 0.016312111 0.26806802 0.04053554 0.06839886
0.15797506 -0.031690083 0.048662428 -0.20366004 -0.23893818 -0.0145974215 -0.23025388 -0.24757057
0.107644886 -0.09885237 0.17299575 -0.2464959 0.051410858 -0.1733538 -0.018877298 -0.051368147
0.05679372 0.25582 -0.18254124 0.06642483 -0.23148182 -0.26861814 0.0039358116 0.16886865
-0.10486534 0.31218636 0.36369655 -0.20705108 -0.094695754 -0.15054995 -0.16847396 0.22028808
0.36841762 0.17532822 0.010828472 -0.15040463 -0.06744504 0.592414 -0.37815535 0.20025566
00000000: d8f9 9f3d 2ea9 343e ecfa 1cbe 467f 263e
00000010: 8815 363e 7425 8e3b a41e aa3d 9883 13bd
00000020: 7ba0 fbbb ce43 78be cd93 24bd 7282 86bd
00000030: 60f7 3dbc f16f b83d cc0d 7e3e f61f c43d
00000040: 387a d83d 4997 16bd 0074 5f3e 3c8e ce3d
00000050: 9c9a 23be d462 c0bd 56f9 0cbe 14ea 5e3d
00000060: 0f42 59be 40d5 3cbe 6ce0 55bc ce0b 6e3e
00000070: b67c 693e 5b30 693d 550e 8b3d b623 02be
00000080: f0a3 a23c a24d 0b3e e5c9 0bbe 0881 2fbe
00000090: e575 2fbe bfd8 0b3e 20a7 34bc 1aee 4f3e
000000a0: f8bd 43be 8fc1 3c3e c7bb 86bd f0d7 61be
000000b0: b801 763e c2c8 5fbd 21b0 00be dd6b 303d
000000c0: 9ec9 583e e0b4 e33c 16c1 173e 7ead fe3d
000000d0: ae48 543e 2bd6 9d3d 20f4 1fbd 3771 983d
000000e0: 0fa0 333e 65d3 473d 9a54 ffbd 03ac 773d
000000f0: d4c7 013e 96c4 86be 1231 edbd 0fd4 28be
00000100: ea6c 3f3e 4c16 5abe a096 39bd ef79 323e
00000110: 9be1 38be bada 90bd 7626 3c3e 401c 8cbe
00000120: 7a60 32be 462c 103f 6742 84be f058 9e3d
00000130: 52b5 7dbe ea36 e8be e372 e13e 8c74 b1bd
00000140: f851 02bd 3a69 0a3e 32e8 4b3d cec7 313e
00000150: faa0 853c 3640 893e 9808 263d b414 8c3d
00000160: 37c4 213e 76cd 01bd 4152 473d 428c 50be
00000170: 36ac 74be 062a 6fbc acc7 6bbe 2483 7dbe
00000180: ec74 dc3d 1d73 cabd cc25 313e 6c69 7cbe
00000190: 3194 523d a983 31be 90a4 9abc 6867 52bd
000001a0: 88a0 683d d7fa 823e 17ec 3abe be09 883d
000001b0: 9209 6dbe 5188 89be fbf7 803b e7eb 2c3e
000001c0: a4c3 d6bd e4d6 9f3e 6f36 ba3e 3305 54be
000001d0: d9ef c1bd c429 1abe 7084 2cbe 3393 613e
000001e0: 3ca1 bc3e 3e89 333e e769 313c ac03 1abe
000001f0: a020 8abd 72a8 173f 949d c1be d20f 4d3e

fc3.bias f4 [8]
0.07438257 -0.11329328 -0.24574511 -0.25380775 -0.53270257 0.42344028 -0.2648878 0.4717286
00000000: e455 983d 4f06 e8bd 9ba4 7bbe 17f3 81be
00000010: 325f 08bf 2acd d83e 609f 87be 6986 f13e

fc4.weight f4 [1, 8]
-0.32836744 0.027294539 -0.24321614 -0.2403715 -0.9670579 0.4575124 -0.41259438 0.99984545
00000000: c71f a8be cc98 df3c a70d 79be f223 76be
00000010: 1b91 77bf 113f ea3e 923f d3be dff5 7f3f
