titanic/model.pth (torch_old, 38418 bytes, 5 tensors)

fc1.weight f4 [128, 7]
0	0x3da3a740	0.07990885
1	0x3c2049b3	0.009783196
2	0xbe0cc9d3	-0.13748865
3	0xbe960e8b	-0.2930797
4	0x3d8eb030	0.06967199
5	0xbe6b2074	-0.22961599
6	0xbe5de200	-0.21668243
7	0x3dbce531	0.09223402
8	0xbe95959a	-0.292157
9	0x3e0253c3	0.12727265
10	0xbe596691	-0.21230532
11	0x3e04206a	0.1290299
12	0xbe2cd8a0	-0.16879511
13	0x3ddbdd3c	0.107355565
14	0x3cb408e5	0.021976897
15	0xbeb7c996	-0.35895985
16	0xbdb04512	-0.08606924
17	0x3e0f5772	0.13998201
18	0x3d8bf970	0.06834686
19	0xbca32995	-0.019917289
20	0xbe36f0d8	-0.17865312
21	0x3e41b93a	0.18918315
22	0x3e6271af	0.2211368
23	0xbeb5dacc	-0.3551849
24	0x3e14747f	0.14497565
25	0xbd634567	-0.05548611
26	0xbe82ccef	-0.25546977
27	0xbdd46eba	-0.10372682
28	0xbe10ce58	-0.14141214
29	0xbe6c0afd	-0.23051067
30	0x3ea8fc7a	0.33005124
31	0x3cd32761	0.025775613
32	0xbe529dca	-0.20568004
33	0x3e5e30c9	0.21698298
34	0x3eaa180b	0.33221468
35	0x3ebf764c	0.3739494
36	0xbe044c79	-0.12919797
37	0xbc9d679d	-0.019214446
38	0x3e999a88	0.3000071
39	0xbe4f251a	-0.20228997
40	0x3d371083	0.04469348
41	0x3d1878e1	0.037224654
42	0xbd8f1858	-0.06987065
43	0x3e14d15e	0.14532992
44	0xbd2a0188	-0.041505367
45	0xbe6f2728	-0.2335478
46	0xbe6429ec	-0.22281617
47	0x3e867d35	0.262674
48	0xbeb0312e	-0.3441252
49	0xbebe1f68	-0.37133336
50	0x3d869c7d	0.065728165
51	0x3dae4f52	0.08511223
52	0xbde30272	-0.11084451
53	0xbcc168f0	-0.023609608
54	0xbe220029	-0.15820374
55	0x3ebea6b7	0.37236568
56	0xbe5a3d89	-0.21312536
57	0xbd9676eb	-0.073469006
58	0x3bf46241	0.007458002
59	0x3ea17093	0.315312
60	0x3e47207d	0.19445987
61	0x3ec0d3bd	0.37661543
62	0xbdfe4508	-0.124155104
63	0x3b932c6f	0.004491381
64	0xbb1ac785	-0.0023617458
65	0xbeabc230	-0.3354659
66	0xbe176e1d	-0.14788099
67	0xbe0c511d	-0.13702817
68	0xbd56f924	-0.052483693
69	0x3ebd9365	0.37026516
70	0xbea0b255	-0.31386057
71	0xbe3e74ee	-0.18599293
72	0x3db6f0b5	0.0893263
73	0x3e702466	0.23451385
74	0x3d6e85c9	0.058233056
75	0x3dc1f34a	0.09470232
76	0x3ec14ee5	0.37755504
77	0x3d05753d	0.03258251
78	0xbeb217c8	-0.3478377
79	0xbebb66da	-0.36601907
80	0x3e70843a	0.2348794
81	0xbd80cc64	-0.062889844
82	0xbe35053b	-0.17677777
83	0x3e07d8da	0.13266316
84	0x3da26926	0.07930212
85	0x3e68ec0f	0.22746299
86	0xbc030634	-0.007997084
87	0xbe8eb000	-0.27868652
88	0xbe9e8187	-0.30958197
89	0xbea0928b	-0.31361803
90	0xbe0bd723	-0.13656287
91	0x3e573c93	0.21019201
92	0x3e3dc826	0.18533382
93	0xbd59bb56	-0.053157173
94	0xbe88ee06	-0.26744097
95	0xbe92b988	-0.28657174
96	0x3e4a7f4c	0.19775122
97	0xbe3a77ee	-0.18209812
98	0x3e75005c	0.23925918
99	0x3dc3da95	0.095631756
100	0x3e33701a	0.17523232
101	0xbdf8c20d	-0.12146387
102	0xbe1c84ca	-0.1528503
103	0x3ebe2332	0.37136227
104	0xbd012c6a	-0.031536497
105	0x3e94d05d	0.2906522
106	0xbca87ec5	-0.02056826
107	0x3e94e1c5	0.29078498
108	0xbdba5a82	-0.09099294
109	0xbc861d91	-0.01637152
110	0x3eaf83c3	0.34280214
111	0xbe585f8e	-0.21130201
112	0x3ea686fc	0.3252486
113	0xbb54b17d	-0.0032454424
114	0xbe7eae33	-0.24871139
115	0x3d630da9	0.05543295
116	0xbde970ae	-0.11398445
117	0x3e8e50f2	0.2779613
118	0x3e902ce7	0.28159258
119	0xbe3b60f6	-0.18298706
120	0xbd930cb4	-0.07180157
121	0x3d2504e2	0.04028786
122	0x3e1eed3b	0.15520184
123	0x3e4fd8f5	0.20297606
124	0xbea7c64a	-0.3276847
125	0x3e6c62f4	0.23084623
126	0xbc9a2710	-0.018817455
127	0x3e938d39	0.28818682
128	0xbe1d75c5	-0.15376957
129	0x3e6ed5ca	0.23323742
130	0xbe7c55ac	-0.24642056
131	0x3e4343ba	0.19068804
132	0xbbec4e00	-0.0072114468
133	0xbe98e69b	-0.29863438
134	0x3d09358c	0.033498332
135	0x3e69a691	0.22817446
136	0xbe798126	-0.24365672
137	0x3e75c073	0.23999195
138	0x3e0c1650	0.13680387
139	0x3eab639f	0.33474442
140	0x3dc3eac2	0.09566261
141	0xbebfaf64	-0.374385
142	0xbe22cff7	-0.15899645
143	0xbe1e1945	-0.15439327
144	0x3d61660d	0.055028964
145	0x3dc7c2ac	0.097539276
146	0x3e8e7dd5	0.27830377
147	0x3be1bda6	0.006889063
148	0xbbf47bc7	-0.0074610445
149	0xbeb6fa6a	-0.35737926
150	0x3e8d6721	0.27617744
151	0x3c1ed039	0.009693199
152	0xbe765994	-0.24057609
153	0x3e6538ba	0.2238492
154	0xbdff9afc	-0.12480733
155	0x3e80aa6d	0.25130025
156	0xbdc6cf34	-0.097074896
157	0x3db78240	0.0896039
158	0xbea0b0cf	-0.31384894
159	0x3e2c0b56	0.168012
160	0xbea97d63	-0.33103475
161	0xbe0fedc2	-0.14055541
162	0x3e9a740d	0.30166665
163	0xbeb28f67	-0.34875032
164	0xbdad76a4	-0.084698945
165	0xbd545d78	-0.05184695
166	0xbe91a831	-0.28448632
167	0x3eabf0c1	0.33582118
168	0x3e13d37a	0.1443614
169	0xbebeeb66	-0.3728897
170	0x3d0b5e93	0.03402574
171	0xbea0e491	-0.31424382
172	0xbc11cfd2	-0.008899646
173	0x3e24595c	0.16049713
174	0x3e4723b3	0.19447212
175	0x3e3b8068	0.18310702
176	0x3c188177	0.009308211
177	0x3e1d00cd	0.15332337
178	0xbe828623	-0.25492963
179	0x3e369f91	0.17834307
180	0x3e5c0381	0.21485712
181	0xbe4a7f65	-0.1977516
182	0xbd3c2d2a	-0.04594151
183	0x3e523880	0.20529366
184	0x3e18796d	0.1489007
185	0xbd244a85	-0.04011013
186	0xbe3c54ed	-0.18391772
187	0xbe4dc264	-0.20093685
188	0xbe9ae4c8	-0.3025267
189	0xbd4e57cf	-0.05037671
190	0x3e774a89	0.24149527
191	0x3e31ec6e	0.17375347
192	0xbe7e8748	-0.24856293
193	0xbe816baa	-0.25277454
194	0xbb6fe2f8	-0.003660379
195	0x3e42ffd4	0.19042903
196	0xbe89c9e0	-0.2691183
197	0x3e1c73de	0.15278575
198	0x3e2f449c	0.17116016
199	0xbeb0c618	-0.34526134
200	0x3e4dc450	0.20094419
201	0x3c85e8da	0.016346384
202	0x3da33cd0	0.079705834
203	0x3e825285	0.25453582
204	0x3dc2ff07	0.09521299
205	0x3ea8a394	0.329373
206	0x3df690ac	0.12039313
207	0x3e8ae6fa	0.27129346
208	0xbe5cfd13	-0.21580915
209	0xbdfd1d4e	-0.12359105
210	0x3e4beb98	0.1991409
211	0x3ebf6f8f	0.373898
212	0xbe83daf5	-0.25752988
213	0x3db877dd	0.09007237
214	0x3cc745f9	0.024325358
215	0xbe010a04	-0.12601477
216	0xbdbaf5a3	-0.09128883
217	0x3e87c799	0.26519468
218	0xbead8603	-0.33891305
219	0xbe8ee41e	-0.27908415
220	0x3ea47894	0.32123244
221	0xbe9e771e	-0.30950254
222	0x3d3d9f27	0.046294358
223	0x3eae8b90	0.34090853
224	0xbea50b47	-0.32235166
225	0x3ebb8ad7	0.36629364
226	0x3d8de0e9	0.06927664
227	0xbd763f92	-0.06011922
228	0x3eb00fe2	0.34387118
229	0xbdfd79f6	-0.12376778
230	0x3e7d02fd	0.24708171
231	0x3e29a167	0.16565476
232	0xbd6fd124	-0.05854906
233	0xbdb955be	-0.09049557
234	0xbeb9dd5a	-0.3630169
235	0xbdd01bad	-0.10161529
236	0x3e7b8b99	0.24564971
237	0xbebd1d74	-0.36936533
238	0x3d73a135	0.05947991
239	0x3c8c29a8	0.017109707
240	0xbe0083e1	-0.12550308
241	0x3d3a6a71	0.045511667
242	0x3ea71df7	0.3264005
243	0xbe53bd60	-0.2067771
244	0x3e0a96ad	0.13534041
245	0x3e692db6	0.22771344
246	0x3eaa3255	0.33241525
247	0x3e55a6b9	0.20864381
248	0xbe453d6f	-0.19261716
249	0x3eaa11b7	0.3321664
250	0xbe21e187	-0.15808688
251	0xbea53f33	-0.3227478
252	0xbd86d495	-0.065835156
253	0xbcf8bafd	-0.0303626
254	0x3d944138	0.07239002
255	0x3e469015	0.193909

fc1.bias f4 [128]
0	0x3dc253e6	0.094886586
1	0xbd9bf164	-0.07614401
2	0xbe2443d0	-0.16041493
3	0x3e7347e4	0.23757893
4	0x3d35b1f4	0.044359162
5	0x3ea45b0e	0.3210072
6	0xbe5b85d0	-0.21437764
7	0xbe4d3b0c	-0.20042056
8	0x3d9af423	0.07566097
9	0x3e5e9c23	0.21739249
10	0x3ebe0b0b	0.371178
11	0xbda7d54c	-0.0819498
12	0x3e35644c	0.17714041
13	0x3ebbc5b9	0.36674288
14	0xbe8eaaad	-0.2786459
15	0x3dcbbb9e	0.099478945
16	0xbdac7ada	-0.084218696
17	0xbe47270f	-0.19448493
18	0xbea94bdb	-0.33065686
19	0x3e150036	0.14550862
20	0x3d906dba	0.07052179
21	0x3e5311c9	0.20612253
22	0x3ea57737	0.32317516
23	0xbe4dc0f0	-0.20093131
24	0xbe71a7af	-0.23599122
25	0xbe5782aa	-0.21045938
26	0xbe062098	-0.13098371
27	0xbdbe37f3	-0.09288015
28	0xbeb3ef8b	-0.35143694
29	0xbdc4c662	-0.09608151
30	0xbe0c24b5	-0.13685878
31	0x3eb2eb17	0.34944984
32	0x3e493245	0.19648083
33	0xbe624c11	-0.2209933
34	0xbd3bea08	-0.045877486
35	0x3eaa4734	0.3325745
36	0x3e872e1e	0.26402372
37	0x3e76f41e	0.24116561
38	0x3e8ad11a	0.27112657
39	0x3db81800	0.08988953
40	0x3d8c9eb1	0.068662055
41	0xbe9e9288	-0.3097117
42	0xbe449fcb	-0.19201581
43	0xbddf8b7c	-0.109152764
44	0xbe01f76b	-0.12692039
45	0x3e9b2fa5	0.30309787
46	0xbdb5a1b9	-0.08868737
47	0xbebadac5	-0.36495033
48	0x3e58c513	0.21168928
49	0xbd9513d4	-0.072791725
50	0xbe82fe1e	-0.255845
51	0xbe107628	-0.14107573
52	0x3eb8cbf0	0.36093092
53	0x3ea81a5d	0.32832614
54	0x3ea42960	0.32062817
55	0x3ded347d	0.11582277
56	0x3e40263c	0.18764585
57	0xbe46cc75	-0.19413932
58	0x3de9780c	0.1139985
59	0xbe2ab8a4	-0.16671997
60	0xbe95c5cd	-0.29252473
61	0xbddadde6	-0.10686855
62	0xbea0e581	-0.31425098
63	0x3ebebf5f	0.3725538
64	0x3e006690	0.12539124
65	0x3e83283d	0.25616637
66	0x3e8e1cf8	0.27756476
67	0xbe20a2dd	-0.15687127
68	0xbe949f6a	-0.29027873
69	0x3e5e25e6	0.21694145
70	0x3e1fd2bc	0.15607733
71	0x3de17386	0.110083625
72	0x3ea4953a	0.321451
73	0xbce6ad32	-0.028158758
74	0xbe303cb2	-0.17210653
75	0x3e9414af	0.2892203
76	0xbd066344	-0.03280951
77	0x3ea544fa	0.32279187
78	0x3e3569e2	0.17716172
79	0x3e1377f0	0.14401221
80	0xbeb1d9f3	-0.34736595
81	0xbdab901f	-0.08377098
82	0x3cf2f618	0.029658362
83	0xbc27d4ec	-0.010243636
84	0xbcd0e695	-0.025500575
85	0xbd9f9818	-0.077926815
86	0xbe412ff2	-0.18865946
87	0xbe4cebd8	-0.20011842
88	0xbe76a1ba	-0.24085131
89	0xbd571172	-0.05250687
90	0x3e70a49f	0.23500298
91	0xbc504a0f	-0.012712969
92	0xbea9ed43	-0.3318883
93	0x3e8ded8c	0.27720296
94	0x3e340d39	0.17583169
95	0x3e54de24	0.20787865
96	0x3d8897e6	0.06669597
97	0x3d350d9e	0.04420244
98	0xbda2f8dd	-0.07957623
99	0x3eb022f6	0.34401673
100	0x3d8a4bd0	0.06752741
101	0xbeb0cb18	-0.34529948
102	0x3e957720	0.29192448
103	0x3d9059c6	0.07048373
104	0x3eaa86cd	0.3330597
105	0x3e355f16	0.17712054
106	0xbe81bdb9	-0.2534006
107	0x3e7232ab	0.23652141
108	0x3dc96e6e	0.09835516
109	0xbeb9fc16	-0.3632514
110	0xbe6584e7	-0.2241398
111	0x3ea43bef	0.32076976
112	0xbde9a17d	-0.114077546
113	0x3db99a41	0.09062625
114	0x3d2acc22	0.041698582
115	0xbebb04f0	-0.36527205
116	0x3ebf3ed4	0.37352622
117	0xbd266f68	-0.04063359
118	0x3e91ae27	0.2845318
119	0x3dee0110	0.116212964
120	0x3d67dab0	0.05660504
121	0xbe4fad8b	-0.20281045
122	0xbd0e9d8b	-0.034818213
123	0x3eb36361	0.35036758
124	0x3ca8c220	0.020600379
125	0x3e8dfd30	0.2773223
126	0x3e9b6c92	0.3035627
127	0x3e63218a	0.22180763

fc2.weight f4 [64, 128]
0	0x3d8e033b	0.0693421
1	0x3cae98bc	0.021313064
2	0x3bba5800	0.00568676
3	0xbda94355	-0.08264796
4	0x3d2b1732	0.041770168
5	0x3c928e18	0.017890021
6	0x3cb2b0d0	0.021812826
7	0x3cc01b24	0.023450442
8	0x3b8b6490	0.0042539313
9	0x3ca65efc	0.020308964
10	0xbdad3b33	-0.08458557
11	0xbc5b0b08	-0.013369329
12	0x39334000	0.00017094612
13	0x3c20fd10	0.00982596
14	0xbd372f9c	-0.04472314
15	0xbd1119cd	-0.035424996
16	0xbbac4f10	-0.0052584484
17	0x3d1d3b9e	0.038386934
18	0xbc7327f0	-0.014841065
19	0xbdadba41	-0.08482791
20	0xbcda5d84	-0.02665592
21	0x3d82cc7d	0.06386659
22	0x3c59dba0	0.013296992
23	0xbd28c1ba	-0.041200377
24	0x3c9b9544	0.018992074
25	0xbd52e701	-0.051489834
26	0xbd87c2e1	-0.06628967
27	0xbd006ae8	-0.031351954
28	0xbbd04a30	-0.0063565
29	0xbd2f8b25	-0.042857308
30	0xbd88d56c	-0.06681332
31	0xbceaf872	-0.028682921
32	0x3c777928	0.0151045695
33	0xbd9dc401	-0.077034004
34	0x369e8000	4.723668e-06
35	0x3b0e85e0	0.0021747276
36	0x3d34dc5e	0.04415547
37	0xbd31153f	-0.043233152
38	0xbcc459f8	-0.023968682
39	0x3ba85cc0	0.00513801
40	0x3b883900	0.0041571856
41	0xbd39e0c6	-0.045380376
42	0xbda79e1a	-0.08184452
43	0x3d94488f	0.07240402
44	0x3d1bbe1a	0.03802309
45	0xbcf46402	-0.029832844
46	0xbda137b2	-0.07871951
47	0xbd772dac	-0.06034629
48	0xbc758590	-0.014985457
49	0x3d3f2d6e	0.046674185
50	0x3da7aad9	0.081868835
51	0x3cf6c908	0.030125156
52	0x3b616740	0.0034393817
53	0x3ca8b684	0.020594843
54	0xbda5439d	-0.08069537
55	0xbd456426	-0.048191212
56	0xbd6fdea8	-0.05856195
57	0x3d349e2e	0.044096164
58	0xbc273218	-0.010204814
59	0xbcf90020	-0.030395567
60	0xbdad9e43	-0.08477452
61	0x3d38705a	0.04502902
62	0x3d868e2b	0.06570085
63	0x3d63daa2	0.055628426
64	0x3c414aa8	0.011797585
65	0xbc5652a0	-0.013081223
66	0xbccc64dc	-0.024950437
67	0xbb835030	-0.004007362
68	0xbdad613c	-0.084658116
69	0xbbaf74b0	-0.0053544864
70	0xbd6cc6e5	-0.057806868
71	0x3d8e943b	0.069618665
72	0x3a04f300	0.000507161
73	0x3c989f14	0.018630542
74	0xbda912e8	-0.08255559
75	0x3d955dc9	0.07293279
76	0xbd629abe	-0.055323355
77	0x3d909823	0.07060268
78	0x3d8a66fb	0.06757923
79	0xbd56dfea	-0.052459635
80	0xbcb96688	-0.022631899
81	0xbd20c962	-0.039254554
82	0x3c08a9f8	0.008341305
83	0x3cc93130	0.024559587
84	0x3d0999c0	0.033593893
85	0xbd2e477a	-0.042548634
86	0x3be6a9f0	0.007039301
87	0x3d478996	0.048715197
88	0xbda24310	-0.079229474
89	0x3c2004b0	0.009766743
90	0xbc528a68	-0.012850381
91	0xbd75cbfe	-0.060008995
92	0x3c405b00	0.011740446
93	0xbdaf7239	-0.08566708
94	0xbd831cea	-0.06401999
95	0x3d9e8415	0.077400364
96	0x3c7ab1a0	0.015301138
97	0xbd8cb438	-0.068703115
98	0xbaab8540	-0.0013085976
99	0xbd53d68c	-0.05171828
100	0xbcabeb30	-0.02098617
101	0x3d342dd6	0.043989025
102	0x3d46d3f2	0.04854197
103	0xbd902620	-0.07038522
104	0xbd882a96	-0.066487476
105	0x3cefd93c	0.02927839
106	0x3ba6ec50	0.0050940886
107	0xbd8f744c	-0.07004604
108	0xbcb47410	-0.022028
109	0xbbb736d0	-0.005591251
110	0xbb6992c0	-0.0035640448
111	0x3d8c7503	0.06858256
112	0x3d56ed6a	0.05247251
113	0xbd0cb4b7	-0.03435203
114	0x3d4da412	0.050205298
115	0xbd3ffb75	-0.046870667
116	0xbda8436b	-0.08215984
117	0x3d2813fa	0.041034676
118	0x3d548d7a	0.051892735
119	0x3d229bae	0.03969925
120	0x3c585910	0.013204828
121	0xbced74cc	-0.028986357
122	0xbd55eb71	-0.052226488
123	0x3d9e7491	0.07737077
124	0xbc116500	-0.008874178
125	0xbd6bbf93	-0.057555746
126	0x3db3e8a3	0.08784606
127	0xbd93b1a8	-0.072116196
128	0xbd76de23	-0.06027044
129	0xbdb011f8	-0.08597177
130	0xbd9f7534	-0.077860266
131	0xbd746544	-0.059666887
132	0x3d51718d	0.05113368
133	0x3ba9264b	0.0051620356
134	0x3d08b388	0.03337434
135	0xbda1f970	-0.079089046
136	0x3db197c1	0.08671523
137	0xbdaef78c	-0.085433096
138	0xbda3697f	-0.07979106
139	0xbd22a889	-0.03971151
140	0xbbf359e6	-0.007426488
141	0x3d12dc89	0.03585485
142	0xbc1e38ae	-0.009657068
143	0xbc16f1b1	-0.009212897
144	0x3d67e859	0.05661807
145	0xbd72e0df	-0.059296485
146	0x3cfa6b00	0.0305686
147	0xbcd0ee8c	-0.025504373
148	0xbd67eec9	-0.056624208
149	0xbc74cdfe	-0.0149416905
150	0x3d8126f7	0.0630626
151	0x3d831977	0.064013414
152	0xbd46f07a	-0.04856918
153	0xbdaacb04	-0.083395034
154	0xbd990d70	-0.07473266
155	0xbceb2995	-0.028706351
156	0x3d8676e7	0.065656476
157	0x3d475a07	0.04866984
158	0x3d87cca8	0.06630832
159	0x3da64ce8	0.081201375
160	0xbc9ad03c	-0.018898122
161	0x3d3d5363	0.046222102
162	0x3c99d6b8	0.018779144
163	0xbd057af2	-0.032587953
164	0x3da59fc7	0.08087116
165	0xbdaca54b	-0.08429965
166	0xbcee94f6	-0.029123764
167	0xbd639b92	-0.055568285
168	0x3dadf769	0.08494455
169	0xbd7f1473	-0.06227536
170	0x3d2c2272	0.042025037
171	0x3d0bfa4e	0.034174256
172	0x3d8ec6b9	0.06971497
173	0xbd7b434d	-0.06134348
174	0x3c8fb0bc	0.017540328
175	0x3cd39764	0.025829025
176	0x3ccd45ac	0.025057636
177	0x3d619246	0.055071138
178	0x3d8dfb9b	0.069327556
179	0x3ca2ad14	0.01985792
180	0x3d4c63ef	0.04989999
181	0x3c093406	0.00837422
182	0xbd215aa9	-0.0393931
183	0xbd73d4d6	-0.059529148
184	0x3d8970d3	0.06710973
185	0xbc917480	-0.017755747
186	0xbd742c0a	-0.05961231
187	0x3bd74d55	0.006570498
188	0x3c86e1f8	0.016465172
189	0x3dae6dd2	0.0851704
190	0xbd15e490	-0.036594927
191	0x3da55da5	0.08074502
192	0x3d409e91	0.04702622
193	0x3d88c7c9	0.06678731
194	0xbc310c94	-0.0108062215
195	0x3d9fb955	0.07799021
196	0xbc4ca678	-0.012490861
197	0xbd0d5ef9	-0.0345144
198	0xbd087401	-0.033313755
199	0x3d9698aa	0.07353337
200	0xbd9da1dc	-0.07696888
201	0x3d8166e2	0.063184515
202	0x3c6a7df4	0.014312256
203	0xbce60455	-0.028078238
204	0x3c5ebb80	0.013594508
205	0xbd12f691	-0.035879675
206	0x3c92e748	0.01793255
207	0x3d050caf	0.0324828
208	0x3b7635e9	0.0037568754
209	0xbdb43a7f	-0.0880022
210	0xbc87e3f4	-0.016588189
211	0x3b76cd84	0.0037659118
212	0xbd9aa405	-0.075508155
213	0xbd913afe	-0.0709133
214	0x3cfd4128	0.030914858
215	0xbda97e80	-0.08276081
216	0xbb90726c	-0.0044081714
217	0x3d91d94d	0.07121525
218	0x3da6dcbd	0.08147571
219	0x3d448896	0.04798182
220	0xbbad33da	-0.005285722
221	0x3da94bc7	0.082664065
222	0xbd31912c	-0.043351337
223	0xbd828861	-0.063736685
224	0xbd618dd6	-0.055066906
225	0xbd8791e9	-0.06619627
226	0xbd81b0ab	-0.06332525
227	0xbc82c4c7	-0.015962971
228	0xbd918f64	-0.07107428
229	0x3bff16c0	0.0077846944
230	0x3c7b2af0	0.015330061
231	0xbd0e89f2	-0.034799524
232	0x3d962731	0.07331694
233	0xbd3c885b	-0.046028476
234	0xbce3df98	-0.027816579
235	0x3d040e04	0.03223993
236	0xbc6168a8	-0.013757862
237	0xbd26072b	-0.04053418
238	0x3d11e074	0.035614446
239	0x3d8e40df	0.06945967
240	0xbd90e774	-0.07075396
241	0xbcf88fec	-0.030342065
242	0xbbdfa1fd	-0.0068247304
243	0x3d09e63b	0.03366683
244	0xbd8742f9	-0.06604571
245	0xbcef1576	-0.029185038
246	0xbd869ebe	-0.065732464
247	0xbcf60b3c	-0.030034654
248	0x3c8c9a74	0.017163493
249	0x3db13f15	0.0865461
250	0xbccc5fb8	-0.024947986
251	0x3d837873	0.06419458
252	0xbcc430d4	-0.023949064
253	0xbb1d688c	-0.0024018614
254	0xbda7ea43	-0.08198979
255	0xbc064888	-0.008196004

fc2.bias f4 [64]
0	0x3be5eb30	0.007016562
1	0x3d4d2c39	0.050091002
2	0x3d9daa4a	0.07698496
3	0x3d2d0127	0.042237427
4	0xbc7c68aa	-0.015405813
5	0x3d86de7f	0.065854065
6	0x3dadad67	0.084803395
7	0xbd859435	-0.06522409
8	0xbd6eb746	-0.058280252
9	0xbd8b8b5c	-0.0681369
10	0x3d2a411d	0.041566003
11	0x3ce92095	0.02845792
12	0x3d42005e	0.04736363
13	0xbd804ce0	-0.06264663
14	0xbd885b01	-0.066579826
15	0x3d1240c9	0.035706315
16	0x3d3f6d6f	0.046735223
17	0xbdb1243c	-0.08649489
18	0xbb203f60	-0.0024451837
19	0x3d34a918	0.044106573
20	0x3dac1c30	0.08403814
21	0x3d04b7f1	0.032401983
22	0x3d792cec	0.060833856
23	0xbda99117	-0.08279627
24	0xbdafda8d	-0.08586607
25	0x3c3bfce6	0.01147387
26	0xbd905b7e	-0.07048701
27	0x3d0bccd6	0.034130894
28	0x3c14c276	0.009079566
29	0x3d3960d3	0.045258354
30	0xbd991582	-0.074748054
31	0x3d56c646	0.052435182
32	0xbd3c2624	-0.04593481
33	0x3bb43b3d	0.005500226
34	0xbd59a423	-0.05313505
35	0x3bdf19a0	0.0068084747
36	0x3cd4b4a7	0.025965048
37	0x3d9e3314	0.07724586
38	0x3ca4f2a0	0.020135224
39	0x3d6c1d7f	0.057645317
40	0x3d8eec42	0.06978656
41	0xbbe23576	-0.0069033457
42	0xbd9bf966	-0.07615928
43	0xbbea5ce0	-0.007152185
44	0xbc95b965	-0.01827688
45	0x3d28f131	0.041245643
46	0x3d852ec4	0.065030605
47	0x3b2ac040	0.0026054531
48	0xbd9b0b03	-0.0757046
49	0xbd57d068	-0.052688986
50	0x3cb8eb90	0.022573262
51	0x3c854c0d	0.016271615
52	0x3b3e8f40	0.0029077083
53	0xbd2ccb56	-0.042186104
54	0x3d16d695	0.036825735
55	0x3c297af8	0.010344259
56	0x3d918168	0.071047604
57	0x3d81345b	0.06308814
58	0x3d516f7a	0.051131703
59	0x3cbf6112	0.023361716
60	0xbd8db4f4	-0.0691928
61	0xbda75c00	-0.081718445
62	0x3d8f6ef9	0.07003588
63	0x3d89c893	0.067277096

fc3.weight f4 [1, 64]
0	0x3d3cf0e0	0.046128154
1	0x3ab4cc22	0.0013793746
2	0xbddf649f	-0.10907864
3	0xbd0035e6	-0.0313014
4	0x3c3f936d	0.011692864
5	0xbda25d68	-0.07927972
6	0xbdd72d1e	-0.10506652
7	0xbdb5fdb3	-0.0888628
8	0xbce21d48	-0.027601853
9	0x3dae663d	0.08515594
10	0x3b63d2f4	0.003476319
11	0x3d6d85f6	0.057989083
12	0x3d6ceb2d	0.05784147
13	0xbde358e7	-0.11100941
14	0xbdb47123	-0.088106416
15	0x3de687ee	0.11256395
16	0xbc3ee259	-0.011650645
17	0xbd9566e1	-0.07295013
18	0x3d2b3710	0.04180056
19	0xbde99f3e	-0.11407326
20	0x3d5f1818	0.054466337
21	0x3d1d901a	0.038467504
22	0xbda261fc	-0.07928845
23	0xbd93f2da	-0.07224055
24	0x3c0027d0	0.007821992
25	0x3d363d1b	0.04449187
26	0x3dadb1cf	0.0848118
27	0x3d1265eb	0.035741728
28	0xbdba9109	-0.091096945
29	0x3db7bf67	0.08972054
30	0x3d1de071	0.038544122
31	0x3d951336	0.07279055
32	0x3cd08287	0.025452865
33	0xbde8cf12	-0.113676205
34	0xbb59c480	-0.0033228695
35	0xbdb299f4	-0.087207705
36	0xbd94c065	-0.07263259
37	0x3dc4885e	0.095963225
38	0xbdde9683	-0.108685516
39	0xbcef1a3a	-0.02918731
40	0xbd2f30a5	-0.042771
41	0xbd68e16a	-0.056855597
42	0xbde219cd	-0.11040077
43	0x3d8fb9f4	0.070178896
44	0xbd8cf4c6	-0.06882624
45	0xbd78b02f	-0.060714897
46	0xbdf8ff2c	-0.12158045
47	0x3de93552	0.11387123
48	0x3daa6015	0.083191074
49	0x3de67969	0.11253626
50	0x3d714c92	0.058910914
51	0x3d42cb12	0.047556944
52	0xbd07cb58	-0.033152908
53	0xbd42047b	-0.047367554
54	0x3d88587d	0.06657503
55	0x3d87df4e	0.06634389
56	0xbd046a0b	-0.032327693
57	0x3d604d3a	0.05476115
58	0xbdf9c86e	-0.12196432
59	0x3dd8389d	0.10557673
60	0xbdd1b5cb	-0.102397524
61	0x3b8541c5	0.004066678
62	0xbd6dba04	-0.058038726
63	0xbdeb9407	-0.11502843
